app/src/main/assets/model.tflite (tflite, 4200 bytes, 9 tensors)

sequential/dense/BiasAdd/ReadVariableOp/resource f4 [10]
00000000: 0000 0000 0000 0000 150b 453c e4c2 8b3c
00000010: 3b48 93bc 0eac 8fbc 1224 88bc 0000 0000
00000020: 0000 0000 ba59 2bbc
0.0 0.0 0.012026568 0.017060705 -0.017978778 -0.017538097 -0.016618762 0.0
0.0 -0.010458404

sequential/dense_1/BiasAdd/ReadVariableOp/resource f4 [8]
00000000: c4d5 733c 84c2 49bc 56e8 1abc d329 64bc
00000010: 0bc2 bf3c 96cc 95bc 9f65 5b3c 6b3f 043c
0.014882509 -0.012314443 -0.009454807 -0.013925987 0.023407957 -0.01828603 0.013390928 0.008071761

sequential/dense_2/BiasAdd/ReadVariableOp/resource f4 [12]
00000000: 63bc be3c 0000 0000 4d4f 663c f99d 4abb
00000010: f51d e03b 9494 4b3a 1294 39bb 0000 0000
00000020: 0000 0000 0000 0000 538d 88bb 0000 0000
0.02328319 0.0 0.014056993 -0.0030916913 0.0068395087 0.00077659753 -0.0028317017 0.0
0.0 0.0 -0.004167238 0.0

sequential/dense_3/BiasAdd/ReadVariableOp/resource f4 [6]
00000000: fb68 1fbc 0000 0000 0000 0000 0000 0000
00000010: 0ec9 87bc 264a abbc
-0.009729619 0.0 0.0 0.0 -0.016575363 -0.02090938

sequential/dense/MatMul f4 [10, 16]
00000000: c054 db3e b0b1 703d ee3b 943e 54b5 a4bd
00000010: 92d5 28be 064c d23e eadd e23e ac26 3b3e
00000020: 860b aebe c8ec a6bd 9328 9ebe d031 6abe
00000030: b6ab 843e da21 97be d041 ef3e 18a5 dcbe
00000040: d0b3 843c eb05 dcbe 8e34 1ebe c9b5 e0be
00000050: 2dda d1be c081 c43d f4a8 d3be 0060 163d
00000060: 8640 933e caf6 de3e 6053 b73c 18d1 febd
00000070: a444 d33e 43ef 84be 102d afbe 8032 e2bc
00000080: 9b41 943e 3bf6 dbbe 1637 b13e cb0a efbd
00000090: fade 9bba 19de 62bd 390e a53e 274b 33bc
000000a0: 5270 e53e 20b9 aebe faba 61bc aa3a e53c
000000b0: 654f f93e 0409 8f3e 1364 bfbe aacb eebe
000000c0: bf29 c43e 3c7a b03e 7504 1e3e 0f25 99be
000000d0: 3658 cabd b376 193e 125e 64be 7b42 cebe
000000e0: 6cf4 98bd a6d1 9ebe 48c0 72bd bdb6 d53e
000000f0: f550 d5be 68eb 77be 968a 36be 16c6 02be
00000100: 9e05 d9be 8f26 aa3e 2c9e 463d acb9 f7be
00000110: 6c5d 7ebe 0cf0 b43e c853 d5bc d0d7 c0be
00000120: 2d6f 98bd ec39 1a3d 96a4 cd3e bfd5 1abd
00000130: 078a d53e f32f a4bd 3741 d8be 1325 b63d
00000140: 5f7d cfbe 3016 cfbd 211c 80be c8dc 383c
00000150: 1e0e aabe e5b2 cd3e a9d1 80bc 4e29 29be
00000160: 7ba1 4a3d 5cd0 85be 2f6f b23e bbb7 b03e
00000170: 2e7d debe 6900 c33e af31 223d 84b9 933e
00000180: d6f8 9dbe 5447 df3e 5a66 12be 77c3 3fbe
00000190: 51b1 53be ec7a b7bc a9bf d4bd d833 95be
000001a0: 58cd d53c 3649 f33e bb0d fdbe ffc5 453e
000001b0: 3d06 3abe e52f 063d dea5 b13e cbe6 f4be
000001c0: 984c 303e 3f50 c1be d0b9 a93e 1cc1 a83e
000001d0: a0fd b0bc 01d2 81be 087e 573e a03c 793c
000001e0: 2c60 053e 5837 63bd 57c8 d5be 0226 05be
000001f0: 84b0 703e 363f 913e dc6c 773e 66d9 21be
00000200: 3848 403e e0a1 05bd 305c 4f3e 48e1 893e
00000210: b0c9 8e3e 5476 153e 6029 57bd 2a03 00be
00000220: 08f0 9a3d e801 753e de1f 1cbe 9e32 b5be
00000230: 3c94 2a3e b685 8bbe d86d c23d e61a 97be
00000240: 0e58 873d 10a0 cb3e aa21 1bbd 6172 a53d
00000250: be15 82bd 5f9a 95be 75bc 4abe 2047 fd3d
00000260: dc58 653e a47b 27be b955 e93d 0c29 963e
00000270: 2b0f 08bd 1d4f d7be eb11 cf3e 7088 b0be
0.42838097 0.058763206 0.28951973 -0.08042398 -0.1648772 0.41073626 0.44309932 0.18276471
-0.33993167 -0.08150631 -0.3089033 -0.22870564 0.25912255 -0.29518014 0.46729898 -0.43094707
0.016199023 -0.42973265 -0.15449736 -0.4388869 -0.40986767 0.0959506 -0.41339839 0.036712646
0.28760165 0.4354766 0.022378623 -0.12442225 0.41263306 -0.25963792 -0.34214067 -0.02761197
0.28956303 -0.42961296 0.3461234 -0.116719805 -0.0011892014 -0.05538759 0.32237414 -0.010943211
0.44812256 -0.34125614 -0.013777489 0.027982075 0.48693386 0.27936566 -0.37381038 -0.46639758
0.383131 0.34468257 0.15431388 -0.29911086 -0.09880106 0.14986686 -0.2230151 -0.40285096
-0.07468495 -0.31019324 -0.059265405 0.4174098 -0.41663328 -0.24210894 -0.17826304 -0.12770876
-0.42387098 0.33232543 0.04849069 -0.48383844 -0.24840325 0.3533939 -0.026040927 -0.37664652
-0.0744308 0.037652895 0.40164632 -0.0378015 0.4170687 -0.08016958 -0.42237255 0.0889379
-0.40525338 -0.10111654 -0.2502146 0.011283107 -0.33213896 0.40175548 -0.015724974 -0.16519663
0.049470406 -0.26135528 0.3485045 0.34515175 -0.4345488 0.3808625 0.039598163 0.28852475
-0.3085391 0.43609107 -0.14296857 -0.18726908 -0.2067311 -0.02239748 -0.10388119 -0.29141116
0.026098892 0.47516793 -0.49424538 0.19313811 -0.18166442 0.03276052 0.3469686 -0.4783233
0.17216718 -0.37756535 0.33149576 0.3295983 -0.021605313 -0.25355533 0.21044171 0.015212208
0.13024968 -0.0554727 -0.4175441 -0.1300278 0.23504835 0.2836854 0.2416262 -0.15805587
0.1877755 -0.03262508 0.2025001 0.26929688 0.2788825 0.1459592 -0.052529693 -0.12501207
0.075653136 0.23926508 -0.15246531 -0.3539018 0.1665811 -0.2725045 0.09493607 -0.2951271
0.06608592 0.39770555 -0.0378739 0.08078457 -0.06351803 -0.29219338 -0.19798453 0.12367082
0.22397178 -0.16355759 0.113933034 0.2932819 -0.03321759 -0.42052546 0.40443358 -0.34479094

sequential/dense_1/MatMul f4 [8, 10]
00000000: 780c e6bd 32d0 f0be 7c05 693e 0669 0c3f
00000010: d025 f0be 07cc b0be 8e81 85be ce30 0c3f
00000020: d684 00bf 5ae2 893e 1c2c 663e 0632 083f
00000030: 1f16 13bf f1ff e23d b67c 703e adac 243e
00000040: 0e84 08bf 80d0 003c 1ea9 87be f929 b43e
00000050: 005b 153c 20c3 e43e 0cd5 8d3e 1c9e a1be
00000060: 5d3c cc3e fa4d 0d3f 2ba3 cebe 4e3e 87be
00000070: e499 023f df91 2f3e 98fd c03e 7d32 edbe
00000080: 2b0a cbbe f57a 93be eabd 013f 3043 da3d
00000090: 5480 0d3f 7b0e 8dbe c4df 853e 4c62 993e
000000a0: 0029 3fbe a07b c03d 50e9 043f 19fa 5a3e
000000b0: f863 733e 65a5 bd3e 7db9 933e 3865 ff3e
000000c0: 4a35 093f 04d4 da3d 88d3 febd ef61 9abe
000000d0: baeb ec3e e8ad 9dbe 8705 6a3e 792c 8a3e
000000e0: 48a5 c93e 6c69 fdbe 70e6 66bd bce2 3b3d
000000f0: d8ac ed3d 40eb b83d 0025 e1be 8fcc 0a3e
00000100: 3f19 9d3a 7b35 d33e 3e62 50be d479 db3e
00000110: 2a40 133f e868 c0be fa8d 03bf 2eed 12bf
00000120: c362 023f 09dd 103f df40 fdbe 48a7 8d3e
00000130: de80 54be 5800 0a3f 7141 84be d31d 9b3e
-0.11232847 -0.4703384 0.22755998 0.54847753 -0.4690385 -0.3453066 -0.26075405 0.5476197
-0.5020269 0.26930505 0.22477764 0.5320133 -0.5745563 0.11083973 0.23485073 0.16081496
-0.533265 0.00786221 -0.26496214 0.35188273 0.009115934 0.4468012 0.27701604 -0.3156594
0.39889804 0.5519711 -0.40358862 -0.26414722 0.5101607 0.17145489 0.37693477 -0.46327582
-0.39656195 -0.28804746 0.5068041 0.10657346 0.5527394 -0.2755011 0.26147282 0.29957807
-0.18667984 0.093985796 0.51918507 0.21384467 0.23768604 0.3704025 0.28852454 0.4988191
0.5359694 0.1068497 -0.1244269 -0.30152842 0.46273595 -0.30796742 0.22853671 0.26987055
0.39383912 -0.49494493 -0.056372106 0.045870528 0.11605233 0.090292454 -0.4397354 0.13554595
0.0011985673 0.4125174 -0.20349976 0.42866385 0.5751978 -0.37580037 -0.51388514 -0.5739316
0.5093195 0.5658727 -0.49463555 0.27666688 -0.20752284 0.53906775 -0.25831178 0.30296192

sequential/dense_2/MatMul f4 [12, 8]
00000000: f3eb 5c3e 688e 0a3e 6cef 5ebe d939 45be
00000010: 555b 023f a448 89be 6a99 a3b9 6808 c6bc
00000020: ac81 023e 389d 073e 56ab 07bf a484 d3be
00000030: 8712 81be 46d4 9a3e 8c7c 48be ec37 583e
00000040: af0d d63e feb7 7abe 2d3a 4a3d a1f8 dbbe
00000050: a58f eb3d e066 bebe 7425 fa3e 46e9 0e3e
00000060: 468a 283e 245a 773e c916 3fbe fe5f 67be
00000070: 3bb7 ac3e 51c1 90be 41b7 593e d601 ba3c
00000080: 0d1a ad3e eabd e03d e2a6 84be eef7 063e
00000090: 1d9f 043e 0d66 153e 2260 8d3d 20b7 0a3f
000000a0: 130b 003f 67df 3f3d 125d 2a3e e715 85be
000000b0: 5330 3a3e e4d7 1e3e 71aa 2f3e 71dc d63e
000000c0: d85a d93e 949b aebd 811b b83e 6f75 f13e
000000d0: 541b 55bc e6f4 6c3d 6f91 ffbe 6d6f 503c
000000e0: ea4d 00bf 80de 73bc d005 a93d 6832 d8be
000000f0: 907b fdbd 949d 49be a8e3 83be b836 043e
00000100: 20d3 b2bd d060 88be 7ef0 02bf c078 353d
00000110: a865 bf3e a61b e43e 607a b73d b5a5 b4be
00000120: dcbe 08bf 0c1c 99bd 20ba a73c 20eb 00bf
00000130: b586 dabe 5a44 af3e 447c cbbe 8645 67be
00000140: 6f76 a53e 4288 a63e df63 0a3f 831b cd3e
00000150: 8426 c73e b21d 033f 252e c33c 22f4 06bf
00000160: 9f21 b6be 748b 8a3e fc6d 4ebe 5c99 0bbe
00000170: 327c c3be 6036 bf3e 028e b7be d0da dc3d
0.21574382 0.13530886 -0.2177102 -0.19260348 0.5092061 -0.26813233 -0.00031204085 -0.02417393
0.12744778 0.13243568 -0.5299581 -0.41312134 -0.25209448 0.30240077 -0.19578761 0.21115083
0.41807315 -0.2448425 0.049371887 -0.42963126 0.115020074 -0.37187862 0.488567 0.13956174
0.16458997 0.2415548 -0.18661036 -0.22595212 0.33733544 -0.2827249 0.21261312 0.022705954
0.33808938 0.10973723 -0.2590857 0.13180515 0.12951322 0.1458971 0.069031015 0.54185677
0.500169 0.046843912 0.16637066 -0.25993273 0.18182497 0.15512043 0.17154862 0.41965058
0.4245212 -0.08525768 0.35958484 0.47159907 -0.013007004 0.05785074 -0.49915645 0.0127218785
-0.5011889 -0.014884591 0.08253062 -0.42225957 -0.12377083 -0.19689018 -0.25759625 0.12911499
-0.08731675 -0.26636362 -0.5114821 0.04430461 0.37382245 0.44552344 0.08958888 -0.35282674
-0.5341623 -0.07476053 0.020474494 -0.5035877 -0.42680898 0.34231836 -0.39743245 -0.22585115
0.3231692 0.3252583 0.5405864 0.40060052 0.38896573 0.51217186 0.023825714 -0.5271627
-0.35572526 0.2705952 -0.20159143 -0.1363272 -0.3818069 0.37346172 -0.3585053 0.10783923

sequential/dense_3/MatMul f4 [6, 12]
00000000: 08d6 ee3d 0410 a63e 5276 febe 1c36 7a3e
00000010: abbe cdbe 6265 f13e 8213 5cbd 1cc5 413e
00000020: dc3f eb3e bace b53e 30e8 a8be 2a28 50be
00000030: e854 bd3d 083b 81bd 621f a3be 7cc5 a8be
00000040: 82b6 72be 384a a53e 5015 643e da58 c43e
00000050: 6899 f3be c0fe 52bd fba8 aebe 9c71 19be
00000060: 8a23 2fbe 0036 5abc 77a4 0cbf 2434 b3be
00000070: b6af 7bbe 447e 8b3e bd13 b2be 0c06 5e3e
00000080: b88d 063f 534c 07bf 4044 e1be 365a 1cbe
00000090: 0a40 87be 80f4 dd3c b0c2 6a3d c9bb b4be
000000a0: c3a2 01bf f04f 473e 0006 5f3d 286c 11bf
000000b0: 53ee 87be 8c15 833e e007 f4bc bc6e 0abe
000000c0: 50a2 e7be 88bd 073f 04dc cd3d 7c82 653e
000000d0: 4986 e73e d168 87be 49df debe 6c97 6b3e
000000e0: 3c16 033e 3477 e5be aed4 56be 6c88 103e
000000f0: 5b95 d3be 684d 083f 6309 4dbe e666 93be
00000100: ad97 54be 2c0a 2cbe ddff c33e c45a 113f
00000110: 1599 10bf 6086 9e3d dae9 e93e 00dd cb3d
0.11661917 0.32434094 -0.49699646 0.24434704 -0.4018453 0.4714766 -0.05372954 0.18922848
0.45947158 0.35509282 -0.32989645 -0.20327821 0.0924471 -0.063100874 -0.3185988 -0.3296317
-0.23702434 0.32283187 0.22273755 0.38349038 -0.47577977 -0.05151248 -0.34113297 -0.14984745
-0.17103401 -0.013318539 -0.54938453 -0.35000718 -0.24578747 0.2724477 -0.34780684 0.21681994
0.52559996 -0.52850837 -0.43997383 -0.15268788 -0.26416045 0.027094126 0.057314575 -0.3529952
-0.5063898 0.19464087 0.05444908 -0.5680566 -0.26549014 0.25602376 -0.029788911 -0.13518804
-0.45241022 0.53023577 0.1005173 0.22413057 0.4521964 -0.26447156 -0.43529728 0.23006982
0.1280145 -0.44817507 -0.20979568 0.14114541 -0.41324887 0.5324311 -0.20023112 -0.28789443
-0.20760985 -0.16800755 0.38281146 0.5677912 -0.56483585 0.07740474 0.45686227 0.09954262

sequential/dense_4/MatMul f4 [1, 6]
00000000: 8b1f 5bbf 195a 53bf c48c 3abf 1f6a 42bf
00000010: b9b6 cabe 17a9 1a3f
-0.85595006 -0.82559353 -0.7287104 -0.7594318 -0.3959253 0.6041426
